…
To enable them in other operations, rebuild TensorFlow with the appropriate compiler flags.
2020-12-25 17:13:48.457695: I tensorflow/compiler/xla/service/service.cc:168] XLA service 0x28ec68e280 initialized for platform Host (this does not guarantee that XLA will be used). Devices:
2020-12-25 17:13:48.457839: I tensorflow/compiler/xla/service/service.cc:176]   StreamExecutor device (0): Host, Default Version
Model: "sequential"
_________________________________________________________________
Layer (type)                 Output Shape              Param #
=================================================================
conv2d (Conv2D)              (None, 1, 3, 7)           70
_________________________________________________________________
batch_normalization (BatchNo (None, 1, 3, 7)           28
_________________________________________________________________
max_pooling2d (MaxPooling2D) (None, 1, 1, 7)           0
_________________________________________________________________
flatten (Flatten)            (None, 7)                 0
_________________________________________________________________
dense (Dense)                (None, 30)                240
_________________________________________________________________
dropout (Dropout)            (None, 30)                0
_________________________________________________________________
dense_1 (Dense)              (None, 1)                 31
=================================================================
Total params: 369
Trainable params: 355
Non-trainable params: 14
_________________________________________________________________
WARNING:tensorflow:From D:/code/AlphaNet/AlphaNetDemo/training.py:68: Model.fit_generator (from tensorflow.python.keras.engine.training) is deprecated and will be removed in a future version.
Instructions for updating:
…
